MP_Hand_Data/P5/G1/B1.jpg.npy (npy, 632 bytes, 1 tensors)

array f8 [63]
0	0x3fe4f79e40000000	0.6552268266677856
1	0x3fe3cf6960000000	0.6190688014030457
2	0x3ea3969820000000	5.837756020810048e-07
3	0x3fe27678a0000000	0.5769618153572083
4	0x3fe31a83a0000000	0.5969865918159485
5	0xbfa358a660000000	-0.03778572008013725
6	0x3fe1584a80000000	0.5420277118682861
7	0x3fe19b0400000000	0.5501728057861328
8	0xbfad2cafe0000000	-0.056981559842824936
9	0x3fe3573fc0000000	0.6044005155563354
10	0x3fe07db6c0000000	0.5153459310531616
11	0xbfb2f8ca20000000	-0.07410872727632523
12	0x3fe5c82ea0000000	0.6806862950325012
13	0x3fe01de220000000	0.5036478638648987
14	0xbfb76ee520000000	-0.09153587371110916
15	0x3fe23b7d40000000	0.5697618722915649
16	0x3fdf3b3a40000000	0.48798996210098267
17	0xbf9feebea0000000	-0.031184175983071327
18	0x3fe268b220000000	0.5752802491188049
19	0x3fdbd01140000000	0.4345744252204895
20	0xbfae756040000000	-0.059489257633686066
21	0x3fe2a77840000000	0.5829430818557739
22	0x3fd9b1b9a0000000	0.4014724791049957
23	0xbfb5e0b140000000	-0.08545978367328644
24	0x3fe2edc9e0000000	0.5915269255638123
25	0x3fd7ef4760000000	0.3739794194698334
26	0xbfbb157e20000000	-0.1057967022061348
27	0x3fe44f0240000000	0.634644627571106
28	0x3fdef02840000000	0.48340803384780884
29	0xbfa30487a0000000	-0.03714393451809883
30	0x3fe459e3c0000000	0.6359728574752808
31	0x3fdb19d8a0000000	0.4234525263309479
32	0xbfae0a6c80000000	-0.058673277497291565
33	0x3fe4721ea0000000	0.63893061876297
34	0x3fd8bf13e0000000	0.38666245341300964
35	0xbfb4911fc0000000	-0.08033941686153412
36	0x3fe48033c0000000	0.640649676322937
37	0x3fd6e4a7c0000000	0.3577060103416443
38	0xbfb8b02700000000	-0.09643787145614624
39	0x3fe63efee0000000	0.695189893245697
40	0x3fdf775380000000	0.491658091545105
41	0xbfa8d7df20000000	-0.048521969467401505
42	0x3fe64cde40000000	0.6968833208084106
43	0x3fdbe06f20000000	0.43557336926460266
44	0xbfb1c8d200000000	-0.06947052478790283
45	0x3fe6476740000000	0.6962162256240845
46	0x3fd9c02720000000	0.40235307812690735
47	0xbfb6044140000000	-0.0860024243593216
48	0x3fe633e980000000	0.6938369274139404
49	0x3fd7fdd340000000	0.3748672604560852
50	0xbfb91b49e0000000	-0.09807264059782028
51	0x3fe81ce380000000	0.7535264492034912
52	0x3fe0532720000000	0.5101504921913147
53	0xbfb08b87a0000000	-0.06462905555963516
54	0x3fe83a44e0000000	0.7571129202842712
55	0x3fddfcf3c0000000	0.468563973903656
56	0xbfb5dd5040000000	-0.08540822565555573
57	0x3fe828c140000000	0.7549749612808228
58	0x3fdc3e0900000000	0.4412863254547119
59	0xbfb7dacbe0000000	-0.09318231791257858
60	0x3fe8091c00000000	0.7511119842529297
61	0x3fdabe4520000000	0.4178631603717804
62	0xbfb918c4c0000000	-0.09803418815135956
