MP_Hand_Data/P5/G1/B10.jpg.npy (npy, 632 bytes, 1 tensors)

array f8 [63]
0	0x3fcfb16cc0000000	0.24760207533836365
1	0x3fe877f1c0000000	0.7646416425704956
2	0x3eb18f3520000000	1.0466220601301757e-06
3	0x3fbfaccec0000000	0.12373058497905731
4	0x3fe73e9ca0000000	0.7263930439949036
5	0xbfb121f700000000	-0.06692451238632202
6	0x3fad7d6900000000	0.05759742856025696
7	0x3fe528caa0000000	0.6612294316291809
8	0xbfbceb9980000000	-0.11296996474266052
9	0x3fc19b0460000000	0.13754324615001678
10	0x3fe3aeaf80000000	0.6150739192962646
11	0xbfc3cbcee0000000	-0.15465722978115082
12	0x3fd027a920000000	0.25242069363594055
13	0x3fe3921540000000	0.6115823984146118
14	0xbfc98b5000000000	-0.19956398010253906
15	0x3fc19f4a00000000	0.13767361640930176
16	0x3fe1b92ee0000000	0.5538553595542908
17	0xbfb60bfaa0000000	-0.08612028509378433
18	0x3fc3e7f1e0000000	0.1555158942937851
19	0x3fde113ee0000000	0.469802588224411
20	0xbfc2507a40000000	-0.14308097958564758
21	0x3fc64e0200000000	0.1742556095123291
22	0x3fdadadc00000000	0.41960811614990234
23	0xbfc8c475e0000000	-0.1934954971075058
24	0x3fc8f66400000000	0.19501924514770508
25	0x3fd7f3fc80000000	0.37426674365997314
26	0xbfce1754e0000000	-0.23508702218532562
27	0x3fcd846ec0000000	0.23060402274131775
28	0x3fe1b393c0000000	0.5531710386276245
29	0xbfb9ba19a0000000	-0.10049591213464737
30	0x3fcfa4b700000000	0.2472141981124878
31	0x3fdd522e80000000	0.4581409692764282
32	0xbfc2e22580000000	-0.14752644300460815
33	0x3fd0c7ef40000000	0.26220303773880005
34	0x3fd9add8c0000000	0.40123575925827026
35	0xbfc8809fc0000000	-0.19142529368400574
36	0x3fd19ad700000000	0.27507567405700684
37	0x3fd6701100000000	0.3505899906158447
38	0xbfcd292540000000	-0.22781816124916077
39	0x3fd411cc00000000	0.3135862350463867
40	0x3fe252e080000000	0.5726168155670166
41	0xbfbf496f00000000	-0.12221425771713257
42	0x3fd5c15660000000	0.3399253785610199
43	0x3fdf1055c0000000	0.48537200689315796
44	0xbfc5439a20000000	-0.16612555086612701
45	0x3fd6bdf9c0000000	0.3553451895713806
46	0x3fdba6cb00000000	0.4320552349090576
47	0xbfc9fb0660000000	-0.2029731720685959
48	0x3fd769e100000000	0.36583733558654785
49	0x3fd89de7a0000000	0.3846377432346344
50	0xbfcdd30020000000	-0.2330017238855362
51	0x3fd90c6a00000000	0.39138269424438477
52	0x3fe3750fc0000000	0.6080397367477417
53	0xbfc36700c0000000	-0.15158089995384216
54	0x3fda384f20000000	0.4096868336200714
55	0x3fe15e4f80000000	0.5427625179290771
56	0xbfc8de74c0000000	-0.19428882002830505
57	0x3fdaa33700000000	0.4162118434906006
58	0x3fdff231c0000000	0.4991573691368103
59	0xbfcbd49a20000000	-0.21742559969425201
60	0x3fdafcd620000000	0.4216819107532501
61	0x3fdd65bdc0000000	0.4593347907066345
62	0xbfce45eb00000000	-0.23650872707366943
