MP_Hand_Data/P5/G1/B2.jpg.npy (npy, 632 bytes, 1 tensors)

array f8 [63]
0	0x3fe41fbf80000000	0.6288754940032959
1	0x3fe4493780000000	0.6339375972747803
2	0x3e96be9300000000	3.389184257684974e-07
3	0x3fe1f4c140000000	0.5611273050308228
4	0x3fe37525e0000000	0.6080502867698669
5	0xbf9e0a3ca0000000	-0.029335925355553627
6	0x3fe1168ca0000000	0.5340026021003723
7	0x3fe2191020000000	0.565559446811676
8	0xbfa635a160000000	-0.043377917259931564
9	0x3fe2cf8900000000	0.5878338813781738
10	0x3fe1112a00000000	0.5333452224731445
11	0xbfacfceee0000000	-0.05661722645163536
12	0x3fe4edd0a0000000	0.6540301442146301
13	0x3fe0cd5160000000	0.5250632166862488
14	0xbfb19c4b60000000	-0.06879111379384995
15	0x3fe2090b60000000	0.5636040568351746
16	0x3fe050db40000000	0.509870171546936
17	0xbf80c20940000000	-0.008182594552636147
18	0x3fe2276ae0000000	0.567311704158783
19	0x3fdd909aa0000000	0.4619509279727936
20	0xbf97f859c0000000	-0.023408319801092148
21	0x3fe25fdd20000000	0.5742021203041077
22	0x3fdbe360e0000000	0.43575307726860046
23	0xbfa57aa700000000	-0.041951388120651245
24	0x3fe2a99ba0000000	0.5832040905952454
25	0x3fda7af800000000	0.4137554168701172
26	0xbfadc47b80000000	-0.05813966691493988
27	0x3fe3df7020000000	0.6210251450538635
28	0x3fe0486ae0000000	0.508840024471283
29	0xbf8a681640000000	-0.012893842533230782
30	0x3fe3f6ca80000000	0.6238758563995361
31	0x3fdd307600000000	0.456082820892334
32	0xbf962a6680000000	-0.02164611965417862
33	0x3fe40f70a0000000	0.6268847584724426
34	0x3fdb46ee80000000	0.4262043237686157
35	0xbfa3210120000000	-0.037361178547143936
36	0x3fe425e7e0000000	0.6296271681785583
37	0x3fd9c09380000000	0.4023789167404175
38	0xbfaa401880000000	-0.0512702614068985
39	0x3fe58c0220000000	0.6733408570289612
40	0x3fe08b20e0000000	0.5169834494590759
41	0xbf976deb40000000	-0.022880245000123978
42	0x3fe5b31c60000000	0.678114116191864
43	0x3fde0103a0000000	0.46881189942359924
44	0xbf9f6ffda0000000	-0.030700648203492165
45	0x3fe5b09ee0000000	0.6778101325035095
46	0x3fdc4489a0000000	0.44168320298194885
47	0xbfa4dbcc00000000	-0.04073941707611084
48	0x3fe5a4aa40000000	0.6763507127761841
49	0x3fdac93e60000000	0.41853293776512146
50	0xbfaa2569a0000000	-0.05106668546795845
51	0x3fe7263020000000	0.7234116196632385
52	0x3fe10b8500000000	0.532656192779541
53	0xbfa347e5c0000000	-0.03765790909528732
54	0x3fe7314b40000000	0.7247673273086548
55	0x3fdfb9db40000000	0.495718777179718
56	0xbfa78954a0000000	-0.04596962407231331
57	0x3fe71c5d60000000	0.7222124934196472
58	0x3fde48db20000000	0.47319677472114563
59	0xbfa8ba1e40000000	-0.04829496890306473
60	0x3fe70e6d00000000	0.7205109596252441
61	0x3fdd039ce0000000	0.45334550738334656
62	0xbfaa678260000000	-0.051570963114500046
