MP_Hand_Data/P5/G1/B3.jpg.npy (npy, 632 bytes, 1 tensors)

array f8 [63]
00000000: 0000 0000 3f8b e33f 0000 00c0 fbb7 e43f
00000010: 0000 0000 040c a23e 0000 0000 35c0 e03f
00000020: 0000 00a0 dec8 e33f 0000 0060 3469 a3bf
00000030: 0000 00a0 bbd7 de3f 0000 0000 3440 e23f
00000040: 0000 0020 8465 afbf 0000 0060 b808 e13f
00000050: 0000 00e0 0cf2 e03f 0000 0020 fd61 b5bf
00000060: 0000 00c0 805f e33f 0000 0060 b279 e03f
00000070: 0000 0000 783b bbbf 0000 00e0 4acb e03f
00000080: 0000 0060 9409 e03f 0000 00c0 22f6 9fbf
00000090: 0000 0040 3c00 e13f 0000 0000 f05b dc3f
000000a0: 0000 00a0 3c21 afbf 0000 00e0 6e46 e13f
000000b0: 0000 00c0 aa28 da3f 0000 0020 fb0a b7bf
000000c0: 0000 0060 859a e13f 0000 0000 a13f d83f
000000d0: 0000 0060 5541 bdbf 0000 00a0 faf7 e23f
000000e0: 0000 00c0 a6d3 df3f 0000 0020 632f a5bf
000000f0: 0000 0000 ee2a e33f 0000 0080 50b9 db3f
00000100: 0000 0000 8920 b0bf 0000 0080 ef51 e33f
00000110: 0000 0060 ae3d d93f 0000 0080 160d b6bf
00000120: 0000 00a0 ca67 e33f 0000 0080 7638 d73f
00000130: 0000 0020 9ffd babf 0000 0000 1d00 e53f
00000140: 0000 0040 5c39 e03f 0000 0060 dc6e adbf
00000150: 0000 00c0 1e1d e53f 0000 00c0 dea4 dc3f
00000160: 0000 0000 b914 b4bf 0000 0000 9c13 e53f
00000170: 0000 0040 e95a da3f 0000 0060 5550 b8bf
00000180: 0000 00c0 cef7 e43f 0000 0080 216a d83f
00000190: 0000 0080 d80b bcbf 0000 00e0 4ef6 e63f
000001a0: 0000 00e0 bae1 e03f 0000 0020 ac35 b4bf
000001b0: 0000 0040 1f07 e73f 0000 00e0 56f8 de3f
000001c0: 0000 0080 9e9c b9bf 0000 0080 60ff e63f
000001d0: 0000 00c0 d230 dd3f 0000 0020 6e95 bbbf
000001e0: 0000 0000 bfea e63f 0000 0080 e6a4 db3f
000001f0: 0000 0000 c74f bdbf
0.6107478141784668 0.6474589109420776 5.378406058298424e-07 0.5234627723693848 0.618270218372345 -0.037912022322416306 0.48191729187965393 0.5703372955322266
-0.061321381479501724 0.5323144793510437 0.5295471549034119 -0.08352643996477127 0.6054080724716187 0.5148555636405945 -0.10637617111206055 0.5248159766197205
0.5011693835258484 -0.031212370842695236 0.5312787294387817 0.4431114196777344 -0.060800451785326004 0.5398477911949158 0.4087321162223816 -0.09001130610704422
0.5501124262809753 0.37888360023498535 -0.1142781600356102 0.5927708745002747 0.4972931742668152 -0.04137716069817543 0.5989904403686523 0.4331856966018677
-0.06299644708633423 0.6037518978118896 0.39438971877098083 -0.08613720536231995 0.6064198613166809 0.36282122135162354 -0.10543245822191238 0.6562638282775879
0.5070019960403442 -0.05748642608523369 0.6598047018051147 0.4475628733634949 -0.07844120264053345 0.6586437225341797 0.41179877519607544 -0.0949757918715477
0.6552499532699585 0.3814777135848999 -0.10955575108528137 0.7175669074058533 0.5275549292564392 -0.07894397526979446 0.7196193933486938 0.48390743136405945
-0.1000460684299469 0.7186739444732666 0.45610493421554565 -0.10774887353181839 0.7161555290222168 0.4319397211074829 -0.1144985556602478
