MP_Hand_Data/P5/G1/B4.jpg.npy (npy, 632 bytes, 1 tensors)

array f8 [63]
00000000: 0000 0040 7854 e53f 0000 00a0 53d8 e43f
00000010: 0000 00e0 1f65 a33e 0000 0040 65bd e23f
00000020: 0000 00e0 4328 e43f 0000 0020 dd81 a3bf
00000030: 0000 0080 9e7b e13f 0000 0060 2cbc e23f
00000040: 0000 00e0 e4ad adbf 0000 0060 d117 e33f
00000050: 0000 00c0 108e e13f 0000 00c0 4353 b3bf
00000060: 0000 0000 293e e53f 0000 0060 0412 e13f
00000070: 0000 0080 93a4 b7bf 0000 0040 fc9d e23f
00000080: 0000 00c0 747d e03f 0000 0080 8848 9cbf
00000090: 0000 0060 a9d2 e23f 0000 00e0 656f dd3f
000000a0: 0000 0000 7b98 acbf 0000 0000 433c e33f
000000b0: 0000 00a0 9745 db3f 0000 0020 ab0d b5bf
000000c0: 0000 0000 8cb0 e33f 0000 0040 3280 d93f
000000d0: 0000 0080 8768 babf 0000 0040 efb6 e43f
000000e0: 0000 0020 fe61 e03f 0000 00e0 7f58 a1bf
000000f0: 0000 0060 54d6 e43f 0000 00e0 2ae9 dc3f
00000100: 0000 0000 6c72 acbf 0000 0060 ea09 e53f
00000110: 0000 0080 bb91 da3f 0000 00a0 5d0c b4bf
00000120: 0000 0040 e12c e53f 0000 0080 cba8 d83f
00000130: 0000 00c0 fc77 b8bf 0000 00c0 6a9c e63f
00000140: 0000 0020 9baa e03f 0000 0020 eb7e a7bf
00000150: 0000 0000 3db8 e63f 0000 0060 94c4 dd3f
00000160: 0000 0040 c428 b1bf 0000 0040 e4c8 e63f
00000170: 0000 00e0 f1a1 db3f 0000 0080 bc4c b5bf
00000180: 0000 0080 31d6 e63f 0000 0080 c3d0 d93f
00000190: 0000 0040 228d b8bf 0000 0020 5d71 e83f
000001a0: 0000 0020 594a e13f 0000 0060 b011 b0bf
000001b0: 0000 0080 d98c e83f 0000 0040 aed4 df3f
000001c0: 0000 0060 2451 b5bf 0000 00c0 ed9b e83f
000001d0: 0000 0080 1f2a de3f 0000 0080 8434 b7bf
000001e0: 0000 0040 4eab e83f 0000 0000 eeb2 dc3f
000001f0: 0000 0060 6f7f b8bf
0.6665612459182739 0.6514070630073547 5.780165679425409e-07 0.5856195688247681 0.629915177822113 -0.03810015693306923 0.5463402271270752 0.5854703783988953
-0.057967331260442734 0.5966574549674988 0.5485919713973999 -0.07548926770687103 0.6638379096984863 0.5334493517875671 -0.09235498309135437 0.5817853212356567
0.5153144598007202 -0.02762044221162796 0.5882155299186707 0.45992419123649597 -0.055850833654403687 0.6011061668395996 0.4261225759983063 -0.08223981410264969
0.6153011322021484 0.39844948053359985 -0.10315749049186707 0.6473308801651001 0.5119619965553284 -0.03387832269072533 0.6511632800102234 0.451731413602829
-0.05556046962738037 0.6574603915214539 0.41514480113983154 -0.0783136859536171 0.6617285013198853 0.38530242443084717 -0.09558086097240448 0.7065938711166382
0.5208259224891663 -0.04589018598198891 0.7099900245666504 0.4651232659816742 -0.06702829897403717 0.7120229005813599 0.4317593276500702 -0.08320215344429016
0.713646650314331 0.40336692333221436 -0.09590353071689606 0.7638383507728577 0.5403257012367249 -0.06276991218328476 0.7671935558319092 0.49735599756240845
-0.0832693800330162 0.7690342664718628 0.4713209867477417 -0.09064510464668274 0.7709113359451294 0.44842100143432617 -0.09569450467824936
