MP_Hand_Data/P5/G1/B5.jpg.npy (npy, 632 bytes, 1 tensors)

array f8 [63]
0	0x3fe9fe42e0000000	0.8122877478599548
1	0x3fe3291020000000	0.598762571811676
2	0x3ea029d180000000	4.8170545596804e-07
3	0x3fe764a020000000	0.7310333847999573
4	0x3fe2229720000000	0.5667224526405334
5	0xbfa0b6dc80000000	-0.03264512121677399
6	0x3fe69c1160000000	0.7065512537956238
7	0x3fe08af160000000	0.5169607996940613
8	0xbfa7e96860000000	-0.046702634543180466
9	0x3fe8c09dc0000000	0.7735127210617065
10	0x3fdeefc280000000	0.48338377475738525
11	0xbfaf06f460000000	-0.06059993430972099
12	0x3feb24dd80000000	0.848250150680542
13	0x3fde9a1920000000	0.4781554043292999
14	0xbfb31ad140000000	-0.07462795078754425
15	0x3fe80fcbc0000000	0.7519282102584839
16	0x3fdd6caec0000000	0.459758460521698
17	0xbf85dd8c40000000	-0.010676475241780281
18	0x3fe87deb00000000	0.7653708457946777
19	0x3fd9f39ec0000000	0.4054943919181824
20	0xbfa0984fc0000000	-0.03241204470396042
21	0x3fe8f21b00000000	0.7795538902282715
22	0x3fd7eba840000000	0.37375837564468384
23	0xbfac74c800000000	-0.05557847023010254
24	0x3fe96114a0000000	0.7931006550788879
25	0x3fd6364bc0000000	0.34706395864486694
26	0xbfb32e25e0000000	-0.07492291182279587
27	0x3fea1b3080000000	0.8158190250396729
28	0x3fdd740ae0000000	0.46020767092704773
29	0xbf91337f80000000	-0.01679801195859909
30	0x3fea72baa0000000	0.8265050053596497
31	0x3fd9c574a0000000	0.4026767313480377
32	0xbfa1204220000000	-0.033449236303567886
33	0x3feaa16560000000	0.8322016596794128
34	0x3fd783cf60000000	0.3674200475215912
35	0xbfac4a15c0000000	-0.05525272339582443
36	0x3feab2dee0000000	0.8343347907066345
37	0x3fd5a526a0000000	0.3382050096988678
38	0xbfb28c46c0000000	-0.07245294749736786
39	0x3febe830a0000000	0.8720934987068176
40	0x3fde145ce0000000	0.46999284625053406
41	0xbf9d981120000000	-0.028900401666760445
42	0x3fec2a4f60000000	0.8801648020744324
43	0x3fdacb8580000000	0.41867196559906006
44	0xbfa68db540000000	-0.04404989629983902
45	0x3fec26ace0000000	0.8797211050987244
46	0x3fd8a47360000000	0.38503727316856384
47	0xbfaed86080000000	-0.06024457514286041
48	0x3fec0dfcc0000000	0.8767074346542358
49	0x3fd6cde960000000	0.3563178479671478
50	0xbfb2dbd6e0000000	-0.07366698235273361
51	0x3feda98180000000	0.9269416332244873
52	0x3fdf330460000000	0.48748883605003357
53	0xbfa793b720000000	-0.046048853546381
54	0x3fede394c0000000	0.9340308904647827
55	0x3fdca0a060000000	0.4473038613796234
56	0xbfae86dec0000000	-0.05962272733449936
57	0x3fede2f0e0000000	0.9339527487754822
58	0x3fdaf080e0000000	0.4209291636943817
59	0xbfb0ca1f20000000	-0.06558413058519363
60	0x3fedd357a0000000	0.9320486187934875
61	0x3fd975b1c0000000	0.3978084921836853
62	0xbfb2229ba0000000	-0.07084057480096817
