MP_Hand_Data/P5/G1/B6.jpg.npy (npy, 632 bytes, 1 tensors)

array f8 [63]
00000000: 0000 00c0 4735 e33f 0000 00c0 9355 e03f
00000010: 0000 00c0 0997 a33e 0000 00c0 2fe6 e03f
00000020: 0000 00c0 9826 df3f 0000 0060 9605 a0bf
00000030: 0000 00c0 b131 e03f 0000 00e0 6e2a dc3f
00000040: 0000 00a0 e4ef a6bf 0000 0020 1a12 e23f
00000050: 0000 0060 c93a da3f 0000 00c0 64d1 acbf
00000060: 0000 00c0 9150 e43f 0000 0040 a50c da3f
00000070: 0000 0000 7b68 b1bf 0000 0080 624b e13f
00000080: 0000 00c0 036a d93f 0000 0060 4c93 97bf
00000090: 0000 00a0 439b e13f 0000 0080 c377 d63f
000000a0: 0000 0000 b0c8 a5bf 0000 00a0 66df e13f
000000b0: 0000 0040 75a8 d43f 0000 0000 3549 afbf
000000c0: 0000 0040 6f2a e23f 0000 00c0 2028 d33f
000000d0: 0000 0000 1d90 b3bf 0000 00e0 9c14 e33f
000000e0: 0000 0060 a94b d93f 0000 0000 679d 9abf
000000f0: 0000 00a0 a863 e33f 0000 00c0 510d d63f
00000100: 0000 0060 817d a4bf 0000 0040 438e e33f
00000110: 0000 00c0 d6f9 d33f 0000 00a0 e1c7 acbf
00000120: 0000 00a0 f5a7 e33f 0000 00c0 fd47 d23f
00000130: 0000 0000 71a7 b1bf 0000 00e0 96b6 e43f
00000140: 0000 00e0 e4c8 d93f 0000 0040 7618 a1bf
00000150: 0000 00a0 f607 e53f 0000 00e0 86ba d63f
00000160: 0000 0040 af93 a7bf 0000 00e0 fb22 e53f
00000170: 0000 0000 5fe7 d43f 0000 0060 f590 aebf
00000180: 0000 00a0 1b26 e53f 0000 0080 ef64 d33f
00000190: 0000 0020 561d b2bf 0000 0060 3340 e63f
000001a0: 0000 0060 b8b9 da3f 0000 00a0 f6ed a6bf
000001b0: 0000 00c0 dc88 e63f 0000 00e0 2962 d83f
000001c0: 0000 0060 250b adbf 0000 00e0 a7a0 e63f
000001d0: 0000 0060 59ef d63f 0000 0020 25c0 afbf
000001e0: 0000 0080 3ca8 e63f 0000 0040 48b7 d53f
000001f0: 0000 00c0 01fe b0bf
0.6002539396286011 0.5104464292526245 5.838272727487492e-07 0.5280989408493042 0.48673075437545776 -0.0312926284968853 0.5060662031173706 0.4400899112224579
-0.04479898884892464 0.5647097229957581 0.4098380506038666 -0.05628504604101181 0.6348351240158081 0.40702182054519653 -0.06800049543380737 0.540452241897583
0.39709562063217163 -0.023022836074233055 0.5502031445503235 0.35105979442596436 -0.042546749114990234 0.5585206151008606 0.32278186082839966 -0.0611054003238678
0.5676800012588501 0.2993242144584656 -0.07641774415969849 0.5962662100791931 0.3952430188655853 -0.02599106729030609 0.605915367603302 0.34456294775009155
-0.04002002999186516 0.6111160516738892 0.31212395429611206 -0.056212473660707474 0.6142528653144836 0.285643994808197 -0.06896120309829712 0.6472887396812439
0.40288659930229187 -0.033389754593372345 0.6572220921516418 0.3551346957683563 -0.046048618853092194 0.6605204939842224 0.32662177085876465 -0.05969969555735588
0.6609018445014954 0.3030356168746948 -0.07076013833284378 0.6953369975090027 0.41758546233177185 -0.044784266501665115 0.7042068243026733 0.3809914290904999
-0.05672566220164299 0.7071112990379333 0.3583587110042572 -0.06201282516121864 0.7080366611480713 0.3393116593360901 -0.06637583673000336
