MP_Hand_Data/P5/G1/B7.jpg.npy (npy, 632 bytes, 1 tensors)

array f8 [63]
0	0x3fd86ff960000000	0.38183435797691345
1	0x3fe5fd6580000000	0.6871821880340576
2	0x3eab3eb520000000	8.119628205349727e-07
3	0x3fd2de7300000000	0.2948272228240967
4	0x3fe5217740000000	0.6603351831436157
5	0xbfa116fb00000000	-0.03337845206260681
6	0x3fcf537780000000	0.24473470449447632
7	0x3fe3d03680000000	0.6191666126251221
8	0xbfad5b9a20000000	-0.057339493185281754
9	0x3fd2804740000000	0.289079487323761
10	0x3fe2b9be80000000	0.5851738452911377
11	0xbfb46ca620000000	-0.07978285104036331
12	0x3fd73260e0000000	0.36244985461235046
13	0x3fe2a5d4e0000000	0.5827431082725525
14	0xbfbaba3880000000	-0.10440400242805481
15	0x3fd26875e0000000	0.2876257598400116
16	0x3fe1bfeee0000000	0.5546793341636658
17	0xbfa4be6480000000	-0.04051508009433746
18	0x3fd27030e0000000	0.2880975902080536
19	0x3fdfffaaa0000000	0.4999796450138092
20	0xbfb25f6c40000000	-0.07176853716373444
21	0x3fd2f29aa0000000	0.2960573732852936
22	0x3fddf4c800000000	0.4680652618408203
23	0xbfb9fb5c40000000	-0.10149170458316803
24	0x3fd3983800000000	0.3061656951904297
25	0x3fdc2d2600000000	0.44025564193725586
26	0xbfc0099fe0000000	-0.12529371678829193
27	0x3fd6585180000000	0.3491405248641968
28	0x3fe1aa0120000000	0.552002489566803
29	0xbfaa98d640000000	-0.051947303116321564
30	0x3fd633ad80000000	0.3469041585922241
31	0x3fdf754080000000	0.49153149127960205
32	0xbfb33c1420000000	-0.0751354768872261
33	0x3fd66c84e0000000	0.3503734767436981
34	0x3fdd06ff40000000	0.4535520672798157
35	0xbfb945d1e0000000	-0.09872161597013474
36	0x3fd69c6700000000	0.35329604148864746
37	0x3fdaf76cc0000000	0.4213516116142273
38	0xbfbe162760000000	-0.11752554029226303
39	0x3fda08ffc0000000	0.4067992568016052
40	0x3fe1fdd1e0000000	0.5622338652610779
41	0xbfb15f6900000000	-0.06786209344863892
42	0x3fd9f35020000000	0.4054756462574005
43	0x3fe0361d60000000	0.5066058039665222
44	0xbfb7401de0000000	-0.09082209318876266
45	0x3fd9ea48e0000000	0.404924601316452
46	0x3fde2f9160000000	0.4716533124446869
47	0xbfbc1ca0a0000000	-0.10981182008981705
48	0x3fd9f0f9c0000000	0.4053329825401306
49	0x3fdc4c1bc0000000	0.44214528799057007
50	0xbfbfbca760000000	-0.12397237867116928
51	0x3fdd85f380000000	0.46130073070526123
52	0x3fe2ab09c0000000	0.5833786725997925
53	0xbfb682f680000000	-0.08793583512306213
54	0x3fdd4c2c60000000	0.45777425169944763
55	0x3fe143a720000000	0.5395084023475647
56	0xbfbc9e1660000000	-0.11178722232580185
57	0x3fdd3b0420000000	0.4567270576953888
58	0x3fe05c96a0000000	0.5113022923469543
59	0xbfbefd23a0000000	-0.12105009704828262
60	0x3fdd4a9000000000	0.4576759338378906
61	0x3fdf2e8840000000	0.4872151017189026
62	0xbfc04cba80000000	-0.12734156847000122
