MP_Hand_Data/P5/G1/B8.jpg.npy (npy, 632 bytes, 1 tensors)

array f8 [63]
000000 00 00 00 60 82 2e e6 3f 00 00 00 20 7e 08 ea 3f
       0.6931774020195007 0.8135367035865784
000010 00 00 00 a0 5d 6c ac 3e 00 00 00 00 c4 35 e3 3f
       8.470804573335045e-07 0.6003131866455078
000020 00 00 00 40 4e 3f e9 3f 00 00 00 c0 98 d4 a7 bf
       0.7889777421951294 -0.04654385894536972
000030 00 00 00 c0 4f a0 e1 3f 00 00 00 20 eb ba e7 3f
       0.5508192777633667 0.7415671944618225
000040 00 00 00 60 d3 75 b3 bf 00 00 00 20 3d cc e3 3f
       -0.0760166272521019 0.6186814904212952
000050 00 00 00 40 16 ac e6 3f 00 00 00 20 1a 3b ba bf
       0.70850670337677 -0.10246432572603226
000060 00 00 00 c0 be ab e6 3f 00 00 00 e0 e6 70 e6 3f
       0.7084649801254272 0.7012819647789001
000070 00 00 00 80 c6 c2 c0 bf 00 00 00 a0 9e 0b e3 3f
       -0.13094407320022583 0.59516841173172
000080 00 00 00 e0 cc 4e e5 3f 00 00 00 60 60 99 ab bf
       0.6658691763877869 -0.053904544562101364
000090 00 00 00 40 c3 43 e3 3f 00 00 00 e0 a8 5c e3 3f
       0.6020218133926392 0.6050609946250916
0000a0 00 00 00 60 9c ff b7 bf 00 00 00 60 08 92 e3 3f
       -0.09374406188726425 0.6115762591362
0000b0 00 00 00 00 9e 27 e2 3f 00 00 00 40 46 95 c0 bf
       0.5673360824584961 -0.12955549359321594
0000c0 00 00 00 00 36 e6 e3 3f 00 00 00 20 39 1e e1 3f
       0.621851921081543 0.5349393486976624
0000d0 00 00 00 20 9d 26 c4 bf 00 00 00 20 f6 47 e5 3f
       -0.15742839872837067 0.6650343537330627
0000e0 00 00 00 a0 69 2e e5 3f 00 00 00 00 8e ce af bf
       0.6619156002998352 -0.06212276220321655
0000f0 00 00 00 40 8f 55 e5 3f 00 00 00 40 41 09 e3 3f
       0.6666942834854126 0.5948797464370728
000100 00 00 00 40 50 b9 b7 bf 00 00 00 c0 d9 5d e5 3f
       -0.09267140924930573 0.6677063703536987
000110 00 00 00 20 a6 b2 e1 3f 00 00 00 c0 95 fb be bf
       0.5530577301979065 -0.12102638185024261
000120 00 00 00 00 de 59 e5 3f 00 00 00 80 86 99 e0 3f
       0.6672201156616211 0.5187408924102783
000130 00 00 00 40 0b 4d c2 bf 00 00 00 e0 c1 56 e7 3f
       -0.14297619462013245 0.7293404936790466
000140 00 00 00 c0 a4 81 e5 3f 00 00 00 40 48 83 b3 bf
       0.672075629234314 -0.07622195780277252
000150 00 00 00 e0 44 64 e7 3f 00 00 00 a0 af 80 e3 3f
       0.7309898734092712 0.6094587445259094
000160 00 00 00 00 3c 70 ba bf 00 00 00 40 be 4d e7 3f
       -0.10327506065368652 0.7282401323318481
000170 00 00 00 00 17 3f e2 3f 00 00 00 20 98 e9 bf bf
       0.5702013969421387 -0.12465811520814896
000180 00 00 00 40 bc 2d e7 3f 00 00 00 00 37 36 e1 3f
       0.7243329286575317 0.5378680229187012
000190 00 00 00 20 ce 0e c2 bf 00 00 00 e0 c5 4a e9 3f
       -0.14107681810855865 0.7903775572776794
0001a0 00 00 00 a0 7c 31 e6 3f 00 00 00 00 e7 9b b8 bf
       0.6935408711433411 -0.09612888097763062
0001b0 00 00 00 40 e4 75 e9 3f 00 00 00 60 34 ad e4 3f
       0.7956410646438599 0.6461431384086609
0001c0 00 00 00 00 99 47 bf bf 00 00 00 40 6f 6e e9 3f
       -0.12218624353408813 0.7947307825088501
0001d0 00 00 00 80 64 af e3 3f 00 00 00 80 8f 14 c1 bf
       0.6151602268218994 -0.13343995809555054
0001e0 00 00 00 c0 73 5a e9 3f 00 00 00 40 dc d3 e2 3f
       0.792291522026062 0.5883618593215942
0001f0 00 00 00 40 97 21 c2 bf
       -0.14165011048316956
