MP_Hand_Data/P5/G1/B9.jpg.npy (npy, 632 bytes, 1 tensors)

array f8 [63]
0	0x3fd47673a0000000	0.3197297155857086
1	0x3fec4d2c80000000	0.88442063331604
2	0x3ebd476d80000000	1.745165263855597e-06
3	0x3fcc1b3700000000	0.2195805311203003
4	0x3febd9d2e0000000	0.8703398108482361
5	0xbfb9c59fa0000000	-0.10067174583673477
6	0x3fc5f27ce0000000	0.17146264016628265
7	0x3fea950260000000	0.8306896090507507
8	0xbfc7043500000000	-0.1798158884048462
9	0x3fd059d360000000	0.2554825246334076
10	0x3fe9d592a0000000	0.8073208928108215
11	0xbfcf684c00000000	-0.24537038803100586
12	0x3fd74ffce0000000	0.3642570674419403
13	0x3fe97d0b60000000	0.7965142130851746
14	0xbfd45103c0000000	-0.31744474172592163
15	0x3fcca914c0000000	0.22390994429588318
16	0x3fe77c3d20000000	0.7339158654212952
17	0xbfc88f09e0000000	-0.19186519086360931
18	0x3fce32b7a0000000	0.23592276871204376
19	0x3fe4b0e420000000	0.6465931534767151
20	0xbfd2119700000000	-0.28232359886169434
21	0x3fd06a78e0000000	0.2564985454082489
22	0x3fe2f81680000000	0.5927841663360596
23	0xbfd6197b80000000	-0.34530532360076904
24	0x3fd1e4ace0000000	0.2795822322368622
25	0x3fe17067c0000000	0.5449713468551636
26	0xbfd8e9efc0000000	-0.3892783522605896
27	0x3fd4f45700000000	0.32741332054138184
28	0x3fe78762e0000000	0.7352766394615173
29	0xbfc8ce7f00000000	-0.19380176067352295
30	0x3fd5d89be0000000	0.34134575724601746
31	0x3fe45e6d20000000	0.6365266442298889
32	0xbfd1981720000000	-0.2749078571796417
33	0x3fd696bf40000000	0.3529508709907532
34	0x3fe253d2e0000000	0.5727323889732361
35	0xbfd57246c0000000	-0.33509987592697144
36	0x3fd6e88ec0000000	0.35794419050216675
37	0x3fe0678cc0000000	0.5126403570175171
38	0xbfd8392d20000000	-0.37848976254463196
39	0x3fdaa16040000000	0.4160996079444885
40	0x3fe819bde0000000	0.7531422972679138
41	0xbfc99591a0000000	-0.19987697899341583
42	0x3fdc209f00000000	0.43949103355407715
43	0x3fe5246fe0000000	0.660697877407074
44	0xbfd142c480000000	-0.26970016956329346
45	0x3fdc1b5460000000	0.4391680657863617
46	0x3fe3451220000000	0.6021814942359924
47	0xbfd45eb940000000	-0.31828147172927856
48	0x3fdbe38900000000	0.4357626438140869
49	0x3fe1948d20000000	0.5493836998939514
50	0xbfd686d420000000	-0.3519792854785919
51	0x3fe0163640000000	0.5027114152908325
52	0x3fe90453c0000000	0.7817782163619995
53	0xbfcb2ceee0000000	-0.21230874955654144
54	0x3fe0b45cc0000000	0.5220168828964233
55	0x3fe6d16c00000000	0.7130641937255859
56	0xbfd1aa0780000000	-0.27600276470184326
57	0x3fe0db5120000000	0.5267720818519592
58	0x3fe5522de0000000	0.6662816405296326
59	0xbfd3a80de0000000	-0.30713221430778503
60	0x3fe0cbf540000000	0.5248972177505493
61	0x3fe3ea20e0000000	0.6223301291465759
62	0xbfd4f68820000000	-0.3275471031665802
